…
del.layers[11].output) temp_mode.summary() # print description of each layer Oiginal NeRF model summary:\n1 2 3 4 5 6 7 8 9 10 11 12 13 14 15 16 17 18 19 20 21 22 23 24 25 26 27 28 29 Model: \u0026#34;model\u0026#34; __________________________________________________________________________________________________ Layer (type) Output Shape Param # Connected to ================================================================================================== input_1 (InputLayer) [(None, 90)] 0 [] tf.split (TFOpLambda) [(None, 63), 0 [\u0026#39;input_1[0][0]\u0026#39;] (None, 27)] dense (Dense) (None, 256) 16384 [\u0026#39;tf.split[0][0]\u0026#39;] dense_1 (Dense) (None, 256) 65792 [\u0026#39;dense[0][0]\u0026#39;] dense_2 (Dense) (None, 256) 65792 [\u0026#39;dense_1[0][0]\u0026#39;] dense_3 (Dense) (None, 256) 65792 [\u0026#39;dense_2[0][0]\u0026#39;] dense_4 (Dense) (None, 256) 65792 [\u0026#39;dense_3[0][0]\u0026#39;] tf.concat (TFOpLambda) (None, 319) 0 [\u0026#39;tf.split[0][0]\u0026#39;, \u0026#39;dense_4[0][0]\u0026#39;] dense_5 (Dense) (None, 256) 81920 [\u0026#39;tf.concat[0][0]\u0026#39;] dense_6 (Dense) (None, 256) 65792 [\u0026#39;dense_5[0][0]\u0026#39;] dense_7 (Dense) (None, 256) 65792 [\u0026#39;dense_6[0][0]\u0026#39;] dense_9 (Dense) (None, 256) 65792 [\u0026#39;dense_7[0][0]\u0026#39;] tf.concat_1 (TFOpLambda) (None, 283) 0 [\u0026#39;dense_9[0][0]\u0026#39;, \u0026#39;tf.split[0][1]\u0026#39;] dense_10 (Dense) (None, 128) 36352 [\u0026#39;tf.concat_1[0][0]\u0026#39;] dense_11 (Dense) (None, 3) 387 [\u0026#39;dense_10[0][0]\u0026#39;] dense_8 (Dense) (None, 1) 257 [\u0026#39;dense_7[0][0]\u0026#39;] tf.concat_2 (TFOpLambda) (None, 4) 0 [\u0026#39;dense_11[0][0]\u0026#39;, \u0026#39;dense_8[0][0]\u0026#39;] ================================================================================================== Total params: 595,844 Trainable params: 595,844 Non-trainable params: 0 Only keep the MLP part:\n1 2 3 4 5 6 7 8 9 10 11 12 13 14 15 16 17 18 19 20 21 22 23 Model: \u0026#34;model_1\u0026#34; __________________________________________________________________________________________________ Layer (type) Output Shape Param # Connected to ================================================================================================== input_1 (InputLayer) [(None, 90)] 0 [] tf.split (TFOpLambda) [(None, 63), 0 [\u0026#39;input_1[0][0]\u0026#39;] (None, 27)] dense (Dense) (None, 256) 16384 [\u0026#39;tf.split[0][0]\u0026#39;] dense_1 (Dense) (None, 256) 65792 [\u0026#39;dense[0][0]\u0026#39;] dense_2 (Dense) (None, 256) 65792 [\u0026#39;dense_1[0][0]\u0026#39;] dense_3 (Dense) (None, 256) 65792 [\u0026#39;dense_2[0][0]\u0026#39;] dense_4 (Dense) (None, 256) 65792 [\u0026#39;dense_3[0][0]\u0026#39;] tf.concat (TFOpLambda) (None, 319) 0 [\u0026#39;tf.split[0][0]\u0026#39;, \u0026#39;dense_4[0][0]\u0026#39;] dense_5 (Dense) (None, 256) 81920 [\u0026#39;tf.concat[0][0]\u0026#39;] dense_6 (Dense) (None, 256) 65792 [\u0026#39;dense_5[0][0]\u0026#39;] dense_7 (Dense) (None, 256) 65792 [\u0026#39;dense_6[0][0]\u0026#39;] dense_9 (Dense) (None, 256) 65792 [\u0026#39;dense_7[0][0]\u0026#39;] ================================================================================================== Total params: 558,848 Trainable params: 558,848 Non-trainable params: 0 Ref DDG search: save tensorflow tensor to file DDG search: save intermediate tensor from tensorflow model A Guide to TensorFlow Callbacks ","date":"2023-04-17T00:00:00Z","permalink":"http://bl
…
